leg2/upload_12/models/latest_v2.onnx (onnx, 78432 bytes, 7 tensors)

enc.0.weight f4 [128, 13]
-0.14732604 -0.055634223 -0.21643671 -0.24319798 0.034394737 0.20036857 -0.05858398 -0.16745494
0.054289263 -0.2626029 -0.15743153 -0.0027678446 0.20943351 0.1837065 -0.009166834 -0.26733717
0.08591922 0.20558298 0.310352 0.11361772 -0.18681593 -0.31805056 0.3235283 0.002175285
-0.103651926 -0.14034735 -0.31228274 0.051648762 -0.11813743 0.23762494 -0.15618493 0.3158599
0.14107387 0.2812484 -0.17650744 0.010265807 -0.026279654 -0.21425311 -0.17910782 0.30726376
-0.097962625 -0.33567402 -0.012473754 0.1602244 0.19652613 0.023366265 -0.068123795 -0.13710405
0.0480497 0.007899918 0.053973 0.14393838 -0.40272424 -0.14536951 0.2298945 0.21665025
-0.025313035 0.18556121 -0.18252613 -0.28076547 -0.065120175 0.01108692 0.019982815 0.11641249
-0.27286983 -0.43774068 -0.25280282 0.18326674 0.0019257198 -0.27095717 0.16224194 0.20100772
-0.20573053 -0.18069641 0.14752235 0.24433625 -0.075665444 -0.08144024 0.01765635 0.20711206
-0.13686652 -0.22434133 -0.31297755 -0.030997306 -0.13238642 0.11266277 0.0968066 0.109618254
0.09256653 -0.28163475 0.22994523 -0.22834796 0.079409994 -0.10865158 -0.09147859 -0.015951796
-0.00079595327 -0.06772425 0.25786063 -0.28160033 0.14452706 0.007975858 -0.17886952 -0.012760426
0.31260887 0.23988996 -0.32577008 -0.16591829 0.1982394 -0.342276 -0.02742838 -0.14541098
-0.18699308 0.24568373 -0.26442435 0.21313985 0.09142158 -0.029926846 -0.13413213 -0.035627272
0.19023733 0.022821225 -0.082870044 -0.029441543 -0.112200536 0.2902632 0.19050978 0.10283922
0.08912236 0.18132177 -0.018374206 -0.15809366 -0.36277333 -0.019167442 0.13153525 -0.034009982
0.26823786 -0.13677542 0.0721377 -0.24121794 0.2539883 -0.1630147 0.12622596 0.19190706
-0.17840372 0.11550313 0.019330626 0.051917538 -0.31935623 0.11135784 0.07275164 -0.034966607
0.19725685 0.15573953 -0.039340276 -0.21342742 -0.39370432 0.11869481 0.013927924 -0.06603406
0.24282978 -0.19146971 -0.021369778 -0.049349055 -0.24114634 0.25245425 -0.103654005 0.0585006
0.009516566 -0.16016088 0.21361986 -0.2934264 -0.14251232 -0.011097677 0.121747285 0.22097452
0.070532 0.057906453 0.0696554 0.027410537 -0.18832357 0.05537562 0.10796541 -0.10311477
-0.040294692 0.030854166 -0.22532496 0.23156185 -0.19508386 0.1263687 -0.19176382 0.09863621
0.22293384 0.04353659 0.024991024 -0.0912116 0.13196747 -0.16468982 0.050653342 0.17979966
-0.18361562 -0.045336306 -0.15208721 -0.05410062 -0.20258857 0.0014656485 -0.13156138 0.09011226
-0.08582698 0.13900667 -0.021469412 0.121525146 -0.30380815 -0.017777694 -0.032552592 0.14121191
-0.11546742 -0.20015103 0.21118224 0.15999459 0.07558725 -0.0019806183 -0.081282765 0.24367438
-0.039826866 0.14317395 0.1547078 -0.1641416 -0.1904207 -0.34639856 0.09703117 0.17114908
0.002475529 0.12585133 0.4336878 -0.13400891 0.2627775 -0.047594823 -0.09074851 0.0009807436
-0.050012115 -0.17977652 0.24945429 0.0064621777 -0.12294196 -0.013889478 -0.2823456 -0.31247297
-0.16083673 -0.090093926 0.0044113807 0.16410428 0.2155654 0.005562972 0.16453195 -0.11824739
00000000: a3dc 16be b6e0 63bd 96a1 5dbe e408 79be
00000010: 7fe1 0c3d 6b2d 4d3e c1f5 6fbd 4f79 2bbe
00000020: 6b5e 5e3d e373 86be bb35 21be ba64 35bb
00000030: bd75 563e 8f1d 3c3e 7d30 16bc 6be0 88be
00000040: 6af6 af3d 5884 523e 75e6 9e3e 68b0 e83d
00000050: ad4c 3fbe 86d7 a2be 80a5 a53e 3a8f 0e3b
00000060: 7647 d4bd 37b7 0fbe 86e3 9fbe a78d 533d
00000070: 09f2 f1bd f453 733e f1ee 1fbe 64b8 a13e
00000080: ab75 103e caff 8f3e 5ebe 34be ea31 283c
00000090: 6e48 d7bc 2b65 5bbe 0a68 37be ad51 9d3e
000000a0: a1a0 c8bd 77dd abbe b75e 4cbc dd11 243e
000000b0: 253e 493e 9c6a bf3c 7d84 8bbd 0165 0cbe
000000c0: c3cf 443d a86e 013c cb12 5d3d 9564 133e
000000d0: df31 cebe bfdb 14be 7769 6b3e 90d9 5d3e
000000e0: 485d cfbc c203 3e3e 21e8 3abe 7ec0 8fbe
000000f0: ba5d 85bd eaa5 353c 00b3 a33c ac69 ee3d
00000100: 98b5 8bbe 8c1f e0be 5f6f 81be 47aa 3b3e
00000110: 6f68 fc3a e6ba 8abe c022 263e f8d4 4d3e
00000120: 06ab 52be 7b08 39be 1910 173e 4833 7a3e
00000130: 7cf6 9abd 24ca a6bd 0da4 903c 2f15 543e
00000140: bd26 0cbe bcb9 65be 983e a0be 10ee fdbc
00000150: 4e90 07be bdbb e63d 8a42 c63d 897f e03d
00000160: 8593 bd3d 6e32 90be c376 6b3e 0cd4 69be
00000170: b5a1 a23d b884 debd 2159 bbbd 57ad 82bc
00000180: 85a7 50ba 03b3 8abd 4f06 843e eb2d 90be
00000190: e7fe 133e 2cad 023c 9229 37be 1b11 51bc
000001a0: 450e a03e b7a5 753e 56cb a6be 7ce6 29be
000001b0: 45ff 4a3e cd3e afbe 7bb1 e0bc 9ee6 14be
000001c0: 1d7b 3fbe 8494 7b3e a162 87be 5541 5a3e
000001d0: 3d3b bb3d 2529 f5bc ef59 09be e7ed 11bd
000001e0: 93cd 423e 94f3 ba3c c5b7 a9bd 642f f1bc
000001f0: 65c9 e5bd 619d 943e ff14 433e 5e9d d23d
00000200: c985 b63d 6aac 393e 8185 96bc 4ee3 21be
00000210: 6dbd b9be 0a05 9dbc 2db1 063e 0d4e 0bbd
00000220: 7956 893e db0e 0cbe eebc 933d d601 77be
00000230: c10a 823e 53ed 26be 6141 013e 4983 443e
00000240: 77af 36be e88c ec3d 435b 9e3c 7ca7 543d
00000250: a982 a3be 940f e43d d0fe 943d 2539 0fbd
00000260: b3fd 493e 2f7a 1f3e 4523 21bd b88c 5abe
00000270: 9d93 c9be 4416 f33d f331 643c de3c 87bd
00000280: 5fa8 783e a310 44be ac0f afbc 3c22 4abd
00000290: 11ef 76be af41 813e 8d48 d4bd 539e 6f3d
000002a0: 5feb 1b3c 3701 24be 2abf 5a3e fc3b 96be
000002b0: c0ee 11be 08d3 35bc a456 f93d 2547 623e
000002c0: 1573 903d 512f 6d3d 7ea7 8e3d 108c e03c
000002d0: e5d7 40be 8cd1 623d f81c dd3d d62d d3bd
000002e0: 0c0c 25bd e0c1 fc3c 96bb 66be 8d1e 6d3e
000002f0: 10c4 47be cc66 013e bc5d 44be c801 ca3d
00000300: c548 643e 6c53 323d fab9 cc3c 26cd babd
00000310: 7b22 073e 73a4 28be e179 4f3d 671d 383e
00000320: bc05 3cbe 90b2 39bd c0bc 1bbe 9d98 5dbd
00000330: 6173 4fbe 011b c03a 07b8 06be c78c b83d
00000340: 0ec6 afbd c457 0e3e 9fe0 afbc 2de2 f83d
00000350: be8c 9bbe 87a2 91bc de55 05bd db99 103e
00000360: 2f7a ecbd 64f4 4cbe 2840 583e 9fd5 233e
00000370: 7dcd 9a3d 43cd 01bb 9477 a6bd c785 793e
00000380: 7f21 23bd 319c 123e b96b 1e3e bc14 28be
00000390: a5fd 42be 275b b1be 47b8 c63d b441 2f3e
000003a0: 7c3c 223b 2cdf 003e 540c de3e a239 09be
000003b0: c68a 863e caf2 42bd 5bda b9bd 4b8c 803a
000003c0: 81d9 4cbd 5617 38be f270 7f3e adc0 d33b
000003d0: ffc8 fbbd b190 63bc 9a8f 90be 75fc 9fbe
000003e0: 62b2 24be 2a83 b8bd 588d 903b f40a 283e
000003f0: 2dbd 5c3e 9749 b63b 107b 283e b02b f2bd

enc.0.bias f4 [128]
-0.26230785 0.14738834 -0.07215376 0.19148864 0.18205355 0.028064858 -0.1567021 0.18859415
-0.052831657 -0.15082514 0.06846008 -0.0012811617 0.23739634 -0.25918362 -0.19079994 0.16259941
0.023464622 0.04852742 0.03312195 -0.19586655 0.021689286 0.16414198 0.23672055 -0.033999376
-0.017111639 0.22798178 -0.022152226 0.12985073 -0.0022904223 -0.098533735 0.11050546 -0.1504332
-0.17095058 0.057530034 -0.18569902 0.04639714 -0.2357958 0.18904625 -0.091723 0.06292425
0.21562788 -0.032465454 -0.03956168 0.09464972 -0.25911435 0.120959684 0.043109912 -0.109886475
-0.16994937 -0.13004152 -0.06318209 0.020856418 -0.06704125 -0.18888576 -0.072639816 -0.152409
0.105866976 0.03944498 0.015941016 -0.1361784 0.08266824 0.03393223 0.21059588 -0.19552624
-0.09454215 0.06370239 -0.24657324 -0.17895298 -0.24182276 0.16225938 0.05379077 0.14883453
-0.10102097 0.12877138 0.122194946 -0.1812706 0.2290255 -0.017844675 -0.05999246 0.019401219
0.08647382 0.041427262 0.26055577 0.24681418 0.13739097 -0.0018885334 0.23895188 0.20940834
0.21019441 -0.03597042 0.11771871 0.11880876 -0.24355909 0.13277327 0.043723974 0.22912137
-0.09319286 -0.009716419 0.15595959 0.07061941 0.0019835709 -0.14569098 0.26726466 0.14920121
-0.09653429 -0.15685703 -0.07361364 -0.1719195 0.18194464 0.18317185 0.06674071 0.22492377
0.2300887 0.007276221 -0.06560233 0.10132919 -0.02090762 0.038615827 0.14161588 0.045156896
-0.20366593 -0.17661083 0.045082454 0.22843026 0.036168642 0.23980641 0.07483878 0.03672528
00000000: 374d 86be f8ec 163e 5ac5 93bd 9915 443e
00000010: 3f6c 3a3e 46e8 e53c 8476 20be d31e 413e
00000020: 0266 58bd e871 1abe cc34 8c3d a7ec a7ba
00000030: 0718 733e b7b3 84be 0f61 43be 7680 263e
00000040: e138 c03c b0c4 463d e2aa 073d 3e91 48be
00000050: bbad b13c d614 283e df66 723e ee42 0bbd
00000060: b52d 8cbc 0e74 693e 9678 b5bc 97f7 043e
00000070: e91a 16bb 0ecc c9bd b050 e23d 290b 1abe
00000080: ab0d 2fbe 9da4 6b3d e227 3ebe ed0a 3e3d
00000090: 7474 71be 5795 413e 45d9 bbbd 6ede 803d
000000a0: 8ecd 5c3e 7ffa 04bd 6e0b 22bd b6d7 c13d
000000b0: a3aa 84be b6b9 f73d 0594 303d 290c e1bd
000000c0: 3507 2ebe 9b29 05be 9d65 81bd 14db aa3c
000000d0: ec4c 89bd 456b 41be 2fc4 94bd 1b11 1cbe
000000e0: c9d0 d83d 0f91 213d bc96 823c 5a72 0bbe
000000f0: f74d a93d 86fc 0a3d 72a6 573e 0838 48be
00000100: 519f c1bd 6676 823d b27d 7cbe 733f 37be
00000110: 63a0 77be 5327 263e b653 5c3d 1468 183e
00000120: 15e4 cebd a5dc 033e 5841 fa3d 009f 39be
00000130: a985 6a3e ff2e 92bc a7ba 75bd 4eef 9e3c
00000140: 3019 b13d a2af 293d 9167 853e dbbc 7c3e
00000150: 38b0 0c3e aa88 f7ba cdaf 743e 246f 563e
00000160: 343d 573e b855 13bd 8216 f13d 0252 f33d
00000170: 8e67 79be b7f5 073e e917 333d cb9e 6a3e
00000180: e6db bebd 9d31 1fbc dfb3 1f3e e9a0 903d
00000190: ccfe 013b 0430 15be ead6 883e 34c8 183e
000001a0: c5b3 c5bd 219f 20be c0c2 96bd aa0b 30be
000001b0: b24f 3a3e 6791 3b3e 5aaf 883d 6b52 663e
000001c0: 5f9c 6b3e 5e6d ee3b 845a 86bd ae85 cf3d
000001d0: 7546 abbc a12b 1e3d c103 113e 70f6 383d
000001e0: cd8d 50be 78d9 34be 61a8 383d 9fe9 693e
000001f0: 9225 143d d08f 753e 1345 993d 3f6d 163d

enc.2.weight f4 [128, 128]
-0.055357143 -0.024495214 0.062414452 0.0031497958 -0.050373185 0.011688718 0.08393874 0.061774924
-0.119547516 0.013742978 -0.07106044 -0.06654252 -0.021425951 -0.08573959 0.12814449 -0.047581457
0.1254344 -0.0006654601 -0.31284532 -0.059217498 -0.067733064 0.018385071 -0.034266368 0.002578959
-0.0074313935 -0.038822964 0.052685212 0.12580834 -0.16799562 -0.025412505 -0.021443946 -0.24609196
0.037528113 0.03537344 -0.0341884 0.1027961 -0.03719237 0.0033572584 0.14560725 0.12656176
-0.04194933 0.09357125 0.03180129 -0.0440284 0.025578687 -0.15079725 0.09450313 -0.0308983
-0.041184857 0.02336959 0.1408077 -0.03924376 -0.00848212 -0.08544679 -0.17557052 0.042005863
-0.04632665 -0.00047575103 -0.3199556 -0.09982462 -0.15927008 0.03770295 -0.10492269 -0.016505731
-0.018918434 0.15570958 -0.11893454 0.21178487 0.013786782 -0.004316337 -0.33265623 0.045400493
0.083554335 0.07390703 -0.017696876 0.25927445 0.016708458 0.033306386 0.040767588 0.061914515
-0.3048641 0.074263446 -0.11506668 0.06926551 -0.19021448 -0.17793363 0.057910457 -0.009017675
-0.057806548 0.007771686 0.18035027 -0.07501584 -0.0663074 -0.08778611 0.07727153 -0.15943193
0.016380593 0.3042785 0.06377803 0.037508525 -0.03350656 0.0064134942 -0.1728052 0.07160051
-0.060388178 -0.28197822 0.13421921 -0.06589581 0.010132415 0.15430376 0.15503801 0.11002324
-0.030056912 -0.06450329 -0.047870148 0.11102174 -0.17750864 -0.044643756 0.046504714 0.11030558
-0.019860677 -0.07334026 0.05858502 -0.22040854 0.09573418 -0.023150532 -0.12972425 0.08830473
-0.062131293 -0.022839513 -0.081933185 0.063761875 -0.018919552 0.013266525 -0.054448165 0.0010597131
0.037325036 -0.062138442 -0.066260666 -0.03773927 -0.11417038 -0.024308944 -0.07891412 0.014299177
0.049562108 -0.09144001 0.048752416 -0.12701152 -0.03258085 -0.041492987 -0.018497748 0.02822859
0.046336554 0.0014075753 -0.067901835 -0.065219335 0.008000666 -0.014340822 0.07796303 0.0019184888
-0.08642884 0.05956426 -0.03132704 0.047386408 0.020908589 0.03171461 -0.10008696 -0.03589944
0.015612859 -0.032979768 0.005208204 0.055799082 -0.0140921 -0.13259913 0.06723876 0.04772865
0.029160043 0.044059288 -0.07011914 0.036969166 -0.052479003 -0.01564238 0.019005038 0.029957853
-0.054928895 -0.07365555 -0.07749843 0.015246128 0.021789694 -0.06480715 -0.051903374 -0.050951313
-0.016521143 -0.047694232 -0.034613486 0.030849326 -0.021207798 0.035867535 -0.120494194 -0.097868934
-0.078652695 -0.011383403 0.04111958 -0.0591802 -0.01153423 -0.015346201 0.027994927 -0.055860683
0.017400442 0.06735945 -0.035423346 -0.007997256 -0.043655127 -0.001979374 -0.08215043 0.009684998
0.037861418 -0.044186044 -0.039788425 -0.034985717 0.02121691 0.04807226 -0.08898195 0.0014964935
-0.0033408753 0.07746634 0.010582295 -0.0692162 0.032290693 -0.07917035 0.058144554 -0.0386291
0.019464549 -0.070480175 0.028701052 -0.07654837 -0.06767102 -0.0536144 -0.015318318 -0.046245545
0.010014246 0.003019204 -0.06365229 -0.0071348287 -0.09225737 0.032553975 -0.03833378 -0.0016216005
-0.071358524 -0.004318536 0.017928058 -0.04667367 -0.07493472 0.02653298 -0.10257074 -0.051665112
00000000: 2cbe 62bd 30aa c8bc 4ca6 7f3d ce6c 4e3b
00000010: 1d54 4ebd 0982 3f3c 13e8 ab3d b407 7d3d
00000020: 54d5 f4bd 3a2a 613c 2388 91bd 7247 88bd
00000030: 7a85 afbc 3d98 afbd 4f38 033e c6e4 42bd
00000040: e071 003e 4572 2eba 432d a0be 0c8e 72bd
00000050: a2b7 8abd 4a9c 963c e45a 0cbd c103 293b
00000060: 0c83 f3bb d404 1fbd 73cc 573d e7d3 003e
00000070: 0b07 2cbe e32d d0bc 37ab afbc 88ff 7bbe
00000080: 14b7 193d bde3 103d 2309 0cbd c386 d23d
00000090: 0757 18bd 7305 5c3b 111a 153e 6899 013e
000000a0: 10d3 2bbd 49a2 bf3d 1242 023d 2057 34bd
000000b0: 658a d13c 986a 1abe db8a c13d 6f1e fdbc
000000c0: 74b1 28bd 9571 bf3c e52f 103e 11be 20bd
000000d0: 97f8 0abc bafe aebd c2c8 33be 570e 2c3d
000000e0: 03c1 3dbd 396e f9b9 38d1 a3be da70 ccbd
000000f0: b217 23be 696e 1a3d b5e1 d6bd 0737 87bc
00000100: d5fa 9abc 5572 1f3e f493 f3bd 22de 583e
00000110: f4e1 613c 0f70 8dbb eb51 aabe def5 393d
00000120: 891e ab3d 925c 973d 0af9 90bc 9fbf 843e
00000130: 2de0 883c 476c 083d eafb 263d 139a 7d3d
00000140: 2617 9cbe 6f17 983d 14a8 ebbd 13db 8d3d
00000150: 96c7 42be 3c34 36be 8433 6d3d dfbe 13bc
00000160: 8fc6 6cbd a1a9 fe3b bead 383e e8a1 99bd
00000170: 2dcc 87bd 34c9 b3bd 8940 9e3d 2042 23be
00000180: 9830 863c 64ca 9b3e 0e9e 823d 8aa2 193d
00000190: 2d3e 09bd 4a28 d23b d9f3 30be 4aa3 923d
000001a0: 9859 77bd 735f 90be c370 093e 62f4 86bd
000001b0: 6e02 263c ce01 1e3e 49c2 1e3e dd53 e13d
000001c0: ea39 f6bc 4d1a 84bd 7d13 44bd 5e5f e33d
000001d0: d3c4 35be 5fdc 36bd ba7b 3e3d e4e7 e13d
000001e0: dcb2 a2bc 6b33 96bd d9f6 6f3d c7b2 61be
000001f0: 4810 c43d 2fa6 bdbc 6fd6 04be 1cd9 b43d
00000200: 627d 7ebd ee19 bbbc 96cc a7bd 9695 823d
00000210: 2dfd 9abc d75b 593c 0a05 5fbd 12e6 8a3a
00000220: 23e2 183d e184 7ebd acb3 87bd 7e94 1abd
00000230: 29d2 e9bd 8d23 c7bc ba9d a1bd 1847 6a3c
00000240: a301 4b3d e644 bbbd 9db0 473d 4f0f 02be
00000250: 7f73 05bd 8df4 29bd 9788 97bc a53f e73c
00000260: 66cb 3d3d 647e b83a 1e10 8bbd b791 85bd
00000270: 3a15 033c c4f5 6abc 15ab 9f3d cd75 fb3a
00000280: 9b01 b1bd a7f9 733d c850 00bd 4018 423d
00000290: 7d48 ab3c 2ee7 013d 64fa ccbd 4b0b 13bd
000002a0: 14cd 7f3c cb15 07bd 95a9 aa3b 948d 643d
000002b0: 8de2 66bc 11c8 07be 7ab4 893d 1e7f 433d
000002c0: 0be1 ee3c 8377 343d a09a 8fbd fb6c 173d
000002d0: 39f4 56bd 7324 80bc 74b0 9b3c 2c6a f53c
000002e0: 1ffd 60bd b9d8 96bd 7fb7 9ebd e5ca 793c
000002f0: 4d80 b23c 9cb9 84bd a298 54bd 53b2 50bd
00000300: 5957 87bc 075b 43bd dfc6 0dbd bab7 fc3c
00000310: fabb adbc d6e9 123d a9c5 f6bd 826f c8bd
00000320: aa14 a1bd 7481 3abc 016d 283d f066 72bd
00000330: 11fa 3cbc a26e 7bbc 9e55 e53c 2cce 64bd
00000340: 5f8b 8e3c c0f3 893d 1218 11bd ec06 03bc
00000350: b8cf 32bd 63b8 01bb 7c3e a8bd d3ad 1e3c
00000360: 9314 1b3d 6dfc 34bd 30f9 22bd 2f4d 0fbd
00000370: 16cf ad3c 6be7 443d 2b3c b6bd fd25 c43a
00000380: 96f2 5abb aca6 9e3d 5d61 2d3c 39c1 8dbd
00000390: 3f43 043d 1124 a2bd fc28 6e3d 8c39 1ebd
000003a0: 1e74 9f3c e957 90bd 781e eb3c 64c5 9cbd
000003b0: 1b97 8abd c69a 5bbd aff9 7abc f86b 3dbd
000003c0: cb12 243c d6dd 453b 225c 82bd 48cb e9bb
000003d0: 6ff1 bcbd 5157 053d e203 1dbd e28b d4ba
000003e0: 6b24 92bd 8182 8dbb dddd 923c e42c 3fbd
000003f0: 6077 99bd b15b d93c 9c10 d2bd cc9e 53bd

enc.2.bias f4 [128]
0.085257135 -0.087860815 0.018120151 -0.0649116 -0.06443738 -0.079820216 0.035081092 -0.06263182
-0.017722933 0.046249013 0.014442662 -0.0575956 -0.039872393 0.054380573 0.04752542 0.05426466
0.06653261 -0.0041219275 -0.003196168 0.0053497036 -0.04406389 -0.07763227 -0.030359374 -0.017659133
0.07448283 -0.060937762 0.038718082 0.03921926 -0.06160302 0.013310174 -0.11138645 0.08412091
-0.049469385 0.016702333 -0.057336412 -0.04061641 0.092548884 -0.0047684116 -0.03135621 -0.044693064
-0.1005619 0.106299676 0.027395708 0.08203795 0.017270071 -0.026861764 -0.08804825 -0.021414753
0.060358558 0.005670298 -0.04744466 0.055953875 -0.06937519 0.010047508 -0.047763377 -0.021192811
-0.015038096 -0.07648378 0.056662325 -0.08856845 -0.06707828 0.09787473 -0.05087195 -0.021563392
0.03498617 0.086965725 0.07761293 -0.063358635 -0.07835409 0.050295547 -0.049080543 -0.05459283
0.07611051 0.09703245 -0.051868547 0.00015038243 -0.04566135 0.014467193 -0.03399463 0.06477919
0.08352649 -0.032019325 0.033136636 -0.052643057 0.0514144 0.03417157 0.038332436 0.0064136027
0.11837702 -0.04483117 -0.013580549 0.115931034 -0.054814022 -0.059157874 -0.081496544 -0.029931845
-0.011470156 -0.0002255435 0.0580314 0.012679834 0.089578256 -0.09296519 -0.07354922 0.0323985
0.0039460217 0.00026351312 -0.047842853 -0.09674297 -0.082907066 -0.08097428 0.048419956 0.03667418
-0.0628334 -0.067088775 0.09219588 0.06925866 -0.041820876 -0.062748566 -0.022108283 -0.03278517
0.0124950865 -0.026775863 0.0071018822 -0.055375226 0.04369765 -0.1004105 -0.09182966 -0.059751168
00000000: 4b9b ae3d 5ff0 b3bd b670 943c 5ff0 84bd
00000010: bff7 83bd c878 a3bd 31b1 0f3d 1d45 80bd
00000020: af2f 91bc 9b6f 3d3d eaa0 6c3c 5de9 6bbd
00000030: 3c51 23bd 2abe 5e3d 04aa 423d 9f44 5e3d
00000040: 4042 883d 3c11 87bb cd76 51bb 914c af3b
00000050: 567c 34bd abfd 9ebd 39b4 f8bc e3a9 90bc
00000060: 748a 983d e099 79bd da96 1e3d 60a4 203d
00000070: 7353 7cbd eb12 5a3c 941e e4bd 9547 ac3d
00000080: 69a0 4abd 55d3 883c 96d9 6abd 655d 26bd
00000090: 458a bd3d 5640 9cbb 5f6f 00bd 1310 37bd
000000a0: 66f3 cdbd a5b3 d93d f76c e03c 8303 a83d
000000b0: f779 8d3c 340d dcbc a452 b4bd fe6d afbc
000000c0: 893a 773d e8cd b93b 5555 42bd e42f 653d
000000d0: 9414 8ebd 4e9e 243c 88a3 43bd 8c9c adbc
000000e0: 5962 76bc 87a3 9cbd c116 683d 6063 b5bd
000000f0: 5660 89bd 8c72 c83d 1b5f 50bd b6a5 b0bc
00000100: a84d 0f3d 161b b23d 87f3 9e3d 2cc2 81bd
00000110: 1c78 a0bd b402 4e3d ae08 49bd bb9c 5fbd
00000120: d4df 9b3d f3b8 c63d 1d74 54bd faaf 1d39
00000130: 6507 3bbd ce07 6d3c f43d 0bbd f4aa 843d
00000140: f00f ab3d b226 03bd 48ba 073d 3fa0 57bd
00000150: e897 523d 7df7 0b3d 7902 1d3d 3329 d23b
00000160: a76f f23d e4a0 37bd f380 5ebc 406d ed3d
00000170: ab84 60bd 874f 72bd a9e7 a6bd a133 f5bc
00000180: 52ed 3bbc df7f 6cb9 55b2 6d3d 14bf 4f3c
00000190: ce74 b73d 8964 bebd f9a0 96bd 4ab4 043d
000001a0: a14d 813b 2228 8a39 def6 43bd 2e21 c6bd
000001b0: 2ecb a9bd d8d5 a5bd 0154 463d aa37 163d
000001c0: ccae 80bd d765 89bd 32d1 bc3d 7cd7 8d3d
000001d0: 5e4c 2bbd 5282 80bd 6e1c b5bc be49 06bd
000001e0: 31b8 4c3c 0e59 dbbc e8b6 e83b 22d1 62bd
000001f0: 4ffc 323d 05a4 cdbd 3011 bcbd a4bd 74bd

policy.weight f4 [7, 128]
0.07600922 0.071156435 0.23490447 0.022036292 -0.055056836 0.26666328 0.01221033 0.23639157
-0.021545917 0.0232509 -0.012311685 -0.014842279 0.070364565 0.2655959 0.026598435 0.0337533
0.21899016 0.030074162 0.036715627 -0.048630554 -0.06843102 0.074416086 0.00678591 0.07194708
0.015329961 0.054689087 0.21334094 -0.010518658 0.055397414 -0.011312173 -0.012941229 -0.027028138
-0.0474308 0.34583053 0.09471647 0.048147216 0.1027556 -0.123050086 0.021355938 -0.09774563
0.0134027125 -0.010391237 -0.08399909 0.057136767 -0.115235604 -0.069261566 0.016825277 0.38756242
0.050394226 0.049470417 -0.14479169 0.01409798 0.1989339 -0.053641737 -0.090852 0.0816324
0.024695087 -0.0058997157 0.28763536 0.05396463 0.031662486 -0.18133792 0.057846434 -0.0860777
0.03578679 -0.085317306 -0.0223094 0.0331813 0.06718189 -0.07909957 0.0057628527 -0.023844274
0.016435057 0.02101461 0.026321929 -0.038249765 -0.019402863 -0.0942282 -0.044038065 -0.17216185
0.084144734 -0.055501148 -0.09154522 0.07550138 0.1315768 -0.10007206 -0.018418599 0.03806689
-0.11853152 -0.0125551615 -0.006616373 -0.12750016 -0.08818836 -0.064255536 0.015116258 -0.032337528
-0.04189807 0.004023863 0.12098726 -0.070402905 0.23271167 0.16747972 0.15400928 0.4815311
0.1100581 -0.07108405 -0.031782776 -0.13139199 -0.06051993 -0.048442923 0.07658725 -0.042897172
0.026357006 -0.067058004 0.022810152 -0.058412895 -0.060969576 0.16981028 0.077780105 0.02420725
-0.015104053 -0.036745846 0.19884606 0.05503635 0.072585024 0.04104906 0.07599771 0.1282134
-0.14260517 0.04278811 -0.21140549 0.05020478 -0.04606008 -0.03995213 0.11615829 -0.14954406
0.03892236 0.17216992 -0.0038966301 0.06309994 0.08687764 -0.09143796 -0.05732322 0.04662452
-0.101408936 -0.061726503 0.09877307 -0.07943852 -0.024628785 0.048557155 0.06714947 -0.054481413
0.066880934 0.08744258 0.04511438 -0.021832258 0.024678096 0.07093279 -0.01955625 -0.15509883
0.067174494 -0.070541434 -0.026784576 -0.011162738 -0.13475077 0.12576239 0.023639891 0.22090645
-0.07145627 -0.09905829 -0.100910135 -0.14385678 0.09588603 0.0634836 -0.06252211 -0.12524313
0.04487766 -0.07641674 -0.0105999345 0.083844535 -0.06638727 0.042260386 0.09568826 0.11176859
0.04226521 -0.06311707 -0.12599324 -0.028665245 0.21002313 0.059899077 -0.010737215 0.038551964
0.02233602 0.08492792 -0.06705163 -0.0485775 0.031574577 0.12288448 -0.058297668 0.15749002
0.0025482718 0.12881681 -0.18040404 -0.14292265 0.13139479 0.014172036 -0.07829653 0.2014638
0.0049283467 -0.044682622 0.07413442 -0.082621984 0.062015686 0.1414117 0.045577273 0.04956091
0.1559522 -0.050512504 -0.12142678 0.19695814 0.13355687 0.04923458 -0.00950607 -0.024713736
0.0029906507 0.09970391 -0.22378744 -0.06275397 -0.16705036 -0.13899596 -0.02381506 -0.16746184
-0.016756019 0.15504384 0.07622762 0.21833536 -0.028560653 0.011896349 0.07199491 -0.20916748
-0.06963036 -0.0028722887 0.07057248 0.0098684 0.0067499736 -0.20789094 0.0762871 -0.10176703
-0.016704494 0.017911538 -0.20140153 0.03971501 0.057989128 0.04787595 -0.06584568 -0.21531874
00000000: b9aa 9b3d 77ba 913d cc8a 703e 7485 b43c
00000010: 4783 61bd 1788 883e d60d 483c a210 723e
00000020: 1081 b0bc ac78 be3c f3b6 49bc 082d 73bc
00000030: 4c1b 903d 30fc 873e f6e4 d93c e640 0a3d
00000040: f53e 603e 175e f63c 2063 163d d530 47bd
00000050: 9025 8cbd 7667 983d 575c de3b fe58 933d
00000060: 842a 7b3c aa01 603d 0c76 5a3e 7356 2cbc
00000070: 66e8 623d b156 39bc 7307 54bc 1d6a ddbc
00000080: cc46 42bd b310 b13e b5fa c13d 0436 453d
00000090: 8771 d23d af01 fcbd a6f2 ae3c dc2e c8bd
000000a0: 0d97 5b3c 0240 2abc b707 acbd 3e08 6a3d
000000b0: a500 ecbd 02d9 8dbd 2ad5 893c 956e c63e
000000c0: 2d6a 4e3d 7ea1 4a3d 4644 14be 37fb 663c
000000d0: 54b5 4b3e 70b7 5bbd 9d10 babd e32e a73d
000000e0: 5a4d ca3c 6752 c1bb f144 933e 040a 5d3d
000000f0: 86b0 013d a6b0 39be 62f0 6c3d 8149 b0bd
00000100: 2b95 123d d7ba aebd 34c2 b6bc 1de9 073d
00000110: a996 893d f5fe a1bd 50d6 bc3b 1155 c3bc
00000120: d0a2 863c d526 ac3c 16a1 d73c c9ab 1cbd
00000130: c1f2 9ebc b7fa c0bd 4261 34bd 324b 30be
00000140: 1354 ac3d 2c55 63bd 0f7c bbbd 78a0 9a3d
00000150: 12bc 063e 95f2 ccbd 9ae2 96bc 07ec 1b3d
00000160: a7c0 f2bd 2ab4 4dbc 29ce d8bb 678f 02be
00000170: 199c b4bd 6898 83bd 2eaa 773c 5b74 04bd
00000180: 509d 2bbd 9cda 833b 2bc8 f73d 662f 90bd
00000190: f84b 6e3e ce7f 2b3e 9cb4 1d3e 3f8b f63e
000001a0: 2466 e13d 8494 91bd a82e 02bd 9f8b 06be
000001b0: bfe3 77bd 166c 46bd c7d9 9c3d f2b4 2fbd
000001c0: a6ea d73c b555 89bd 5bdc ba3c 5c42 6fbd
000001d0: 3cbb 79bd bfe2 2d3e 2d4b 9f3d 484e c63c
000001e0: fd76 77bc d082 16bd 4d9e 4b3e cc6d 613d
000001f0: 75a7 943d 0f23 283d b0a4 9b3d 604a 033e
00000200: 1707 12be 9642 2f3d ae7a 58be 87a3 4d3d
00000210: 7fa9 3cbd d8a4 23bd 66e4 ed3d 1422 19be
00000220: 0d6d 1f3d 504d 303e 9b5e 7fbb 8b3a 813d
00000230: e7ec b13d d343 bbbd c1cb 6abd 5af9 3e3d
00000240: 7daf cfbd eed4 7cbd 8949 ca3d aab0 a2bd
00000250: 4ec2 c9bc dee3 463d a985 893d e727 5fbd
00000260: dff8 883d 1815 b33d dbc9 383d 90d9 b2bc
00000270: b829 ca3c 3645 913d 6e34 a0bc 3ad2 1ebe
00000280: c892 893d 0778 90bd 546b dbbc ebe3 36bc
00000290: 1bfc 09be dbc7 003e 72a8 c13c 4d35 623e
000002a0: aa57 92bd 13df cabd f9a9 cebd 314f 13be
000002b0: e55f c43d b103 823d 980b 80bd bc3f 00be
000002c0: a3d1 373d 6180 9cbd 59ab 2dbc afb6 ab3d
000002d0: 0df6 87bd 3a19 2d3d 35f8 c33d eee6 e43d
000002e0: 491e 2d3d 8643 81bd 5f04 01be 60d3 eabc
000002f0: 4e10 573e bc58 753d 25eb 2fbc aae8 1d3d
00000300: 07fa b63c b0ee ad3d 5d52 89bd 33f9 46bd
00000310: 5854 013d dcaa fb3d 89c9 6ebd 1045 213e
00000320: e800 273b 8ee8 033e d6bb 38be 515a 12be
00000330: 5b8c 063e d431 683c ee59 a0bd 874c 4e3e
00000340: f87d a13b 2005 37bd c9d3 973d b735 a9bd
00000350: 2904 7e3d 3bce 103e 3caf 3a3d 6100 4b3d
00000360: efb1 1f3e 33e6 4ebd 9bae f8bd 65af 493e
00000370: 22c3 083e 33aa 493d 59bf 1bbc 7674 cabc
00000380: cbfe 433b 9031 cc3d 8928 65be 2785 80bd
00000390: 400f 2bbe f554 0ebe cd17 c3bc 1e7b 2bbe
000003a0: eb43 89bc d0c3 1e3e 3a1d 9c3d 4e93 5f3e
000003b0: 08f8 e9bc e7e8 423c 1172 933d 0030 56be
000003c0: 5d9a 8ebd 023d 3cbb 4e88 903d 12af 213c
000003d0: e22e dd3b 5de1 54be 693c 9c3d 3c6b d0bd
000003e0: ddd7 88bc 38bb 923c 343c 4ebe 35ac 223d
000003f0: 0286 6d3d 9219 443d 1ada 86bd 847c 5cbe

policy.bias f4 [7]
0.07064748 -0.06680891 -0.048234165 -0.10995175 -0.03270585 0.07987731 -0.12998343
00000000: a0af 903d 1cd3 88bd 3091 45bd 622e e1bd
00000010: 92f6 05bd b796 a33d 601a 05be

value.weight f4 [1, 128]
0.037971485 0.00017212867 0.120556995 -0.016793767 -0.08340303 0.07578194 -0.16366896 0.13810225
0.033954985 -0.13202949 -0.063384995 0.073297605 -0.11730897 0.13257584 0.019641895 0.10014478
0.08345245 -0.088654175 -0.105207406 -0.07238686 0.032504775 0.002828088 -0.0357864 0.32461405
-0.084944256 -0.09048883 -0.14669839 -0.1486489 -0.12183082 -0.07595909 -0.0022455705 0.102165364
0.049667556 0.07654488 0.033869777 -0.05526775 0.038127355 -0.061590794 0.03869301 0.036553495
-0.023694068 0.18688384 0.11974026 0.14093542 0.37238684 0.02035002 -0.03646063 0.011146196
-0.012173157 -0.13522683 0.062171906 -0.054690994 0.11397054 0.040923253 -0.12301327 -0.05669687
-0.061250202 0.06715004 -0.08156157 0.059593584 -0.06919464 0.02071455 0.007317167 -0.009010879
-0.10398994 -0.12142662 -0.10430334 -0.0007284833 0.040533815 -0.05629768 -0.07461982 -0.038995985
0.289325 -0.10915232 0.1346649 -0.07885012 -0.060452074 0.033800747 0.008310985 -0.023028743
-0.058602378 -0.0696882 -0.067412846 -0.048496716 -0.13767213 0.0087615205 -0.09046303 -0.05328525
0.045917187 0.06569286 0.083451994 0.05732391 0.0128693525 -0.029208742 0.033804934 -0.11763693
-0.16960432 -0.15246688 0.06785165 -0.0033880924 0.022641078 0.08093131 0.026519394 0.12600575
-0.09246989 -0.14209631 0.025039831 -0.13385919 -0.035783518 -0.000579751 -0.0097617945 0.10220738
0.0058504827 -0.08506254 0.15126815 0.13200988 0.05313029 0.18267381 -0.0019082192 0.059750848
0.014568439 0.001288549 0.18027505 -0.15843718 -0.21262419 0.0072695008 0.059073914 0.14015816
00000000: fd87 1b3d 707d 3439 96e6 f63d 1593 89bc
00000010: 35cf aabd 9033 9b3d d698 27be ad6a 0d3e
00000020: 6214 0b3d bd32 07be fecf 81bd 0e1d 963d
00000030: af3f f0bd f6c1 073e 0ae8 a03c b518 cd3d
00000040: 1ee9 aa3d 5290 b5bd fb76 d7bd 903f 94bd
00000050: ba23 053d 7157 393b c394 12bd d033 a63e
00000060: 41f7 adbd 3552 b9bd 1a38 16be 6b37 18be
00000070: 7082 f9bd 7090 9bbd 6c2a 13bb 133c d13d
00000080: 3570 4b3d 90c3 9c3d 09bb 0a3d 7060 62bd
00000090: 6e2b 1c3d a146 7cbd 907c 1e3d 1eb9 153d
000000a0: 101a c2bc 7a5e 3f3e 623a f53d 6051 103e
000000b0: 7da9 be3e 16b5 a63c be57 15bd 899e 363c
000000c0: ec71 47bc e778 0abe f8a7 7e3d aa03 60bd
000000d0: 6369 e93d 249f 273d 62ee fbbd fa3a 68bd
000000e0: 7ee1 7abd f685 893d c109 a7bd 6718 743d
000000f0: ebb5 8dbd 8fb1 a93c d8c4 ef3b 5ea2 13bc
00000100: adf8 d4bd 85ae f8bd fd9c d5bd b0f7 3eba
00000110: c906 263d 6598 66bd 47d2 98bd 41ba 1fbd
00000120: 6822 943e 408b dfbd 98e5 093e 2c7c a1bd
00000130: 989c 77bd a772 0a3d cc2a 083c c6a6 bcbc
00000140: 0c09 70bd b0b8 8ebd bf0f 8abd 7ea4 46bd
00000150: ecf9 0cbe 7b8c 0f3c ae44 b9bd a241 5abd
00000160: a913 3c3d fa89 863d e1e8 aa3d 7acc 6a3d
00000170: fad9 523c 2c47 efbc 0b77 0a3d a1eb f0bd
00000180: c1ac 2dbe 4720 1cbe cef5 8a3d c20a 5ebb
00000190: c879 b93c 51bf a53d 333f d93c a707 013e
000001a0: db60 bdbd b281 11be 5520 cd3c 6212 09be
000001b0: bd91 12bd 6efa 17ba efef 1fbc 1a52 d13d
000001c0: 68b5 bf3b 4535 aebd 0ae6 1a3e 992d 073e
000001d0: 269f 593d d80e 3b3e 361d faba 4ebd 743d
000001e0: 76b0 6e3c 88e4 a83a 069a 383e 5b3d 22be
000001f0: 28ba 59be fe34 ee3b 7df7 713d 9f85 0f3e
